magnetism_model.tflite (tflite, 2920 bytes, 6 tensors)

arith.constant f4 [4, 8]
-1.1978036 -0.42437607 -0.9202307 -0.52983004 0.4520699 0.83671415 0.77574474 0.012252772
-0.7252024 0.71773106 -1.0959061 -0.062052637 -0.4641346 0.285867 0.37704477 -0.33549553
-0.011320828 0.62808454 -0.8482277 -0.2631235 -0.522613 0.55188316 0.44711095 -0.54673856
0.77883077 -2.2613068 1.1937081 -0.47851086 0.18881732 -1.5751412 -0.9703963 0.4225088
00000000: a151 99bf d247 d9be 3d94 6bbf f1a2 07bf
00000010: b575 e73e e632 563f 3597 463f dabf 483c
00000020: dda6 39bf 39bd 373f a746 8cbf e82a 7ebd
00000030: 0da3 edbe 295d 923e 030c c13e 12c6 abbe
00000040: ff7a 39bc 26ca 203f 7325 59bf 20b8 86be
00000050: f7c9 05bf 3748 0d3f baeb e43e 0ff7 0bbf
00000060: 7461 473f 40b9 10c0 6dcb 983f 60ff f4be
00000070: 5459 413e 3a9e c9bf e46b 78bf 1353 d83e

arith.constant1 f4 [8, 16]
-0.50145215 0.672566 0.7858022 -0.65148616 -0.48071593 0.20521092 0.8381811 -0.025565028
0.588308 0.42897582 -0.3202663 -0.20674199 -0.5457604 -0.32307863 -0.08766818 0.86039317
0.6264748 -0.18495923 0.089283966 0.13704914 0.075565144 -0.03954256 -0.5958503 0.20451654
-0.08091876 -0.14989954 0.23883802 0.34838778 0.4651677 -0.092826 0.13988371 -0.6273257
-0.5265195 0.42183852 0.6491542 -1.0038627 -0.21848038 -0.04400768 1.0634377 -0.21144013
-0.03835348 0.49741575 -0.51285 0.5681193 -0.40073207 -0.55203396 -0.005052881 0.9200968
-0.15770435 -0.04206039 0.29817477 -0.4749906 -0.35028505 -0.46492755 -0.13785598 0.3809843
0.049159527 -0.21928772 0.0636847 0.1012685 -0.3534931 0.3245004 -0.2686063 -0.1835327
0.033674896 0.58720344 0.2835627 -0.15449454 -0.41916013 -0.27929184 -0.065170325 0.09169758
0.18897466 -0.29748338 0.40044367 0.32218516 0.12349559 -0.114328176 0.17862752 0.70427823
0.47028953 -0.62775993 -0.5950413 0.1674841 0.34865656 -0.07398074 -0.9983932 -0.19269784
0.47498345 0.21570766 0.55892795 0.23367672 0.5710197 0.7286348 -0.17390107 -0.81087875
0.47804227 -0.25467008 -0.48643297 0.7516772 0.82514244 0.5871118 -0.7656939 -0.152874
0.416013 -0.37934288 0.7577392 0.45241708 0.40746966 0.20634031 0.6138995 -0.5932579
-0.49036938 0.09393061 0.38425773 -0.29046878 -0.54787105 -0.27905524 0.4664761 -0.34155074
0.46474424 0.4750617 0.22870685 -0.031759933 0.20196615 -0.26050636 -0.5012985 0.95135623
00000000: 2b5f 00bf 492d 2c3f 552a 493f ccc7 26bf
00000010: 6620 f6be d022 523e 0993 563f c06d d1bc
00000020: 5a9b 163f b8a2 db3e f2f9 a3be 2cb4 53be
00000030: f4b6 0bbf 906a a5be 608b b3bd ba42 5c3f
00000040: a760 203f f465 3dbe 83da b63d 9c56 0c3e
00000050: e6c1 9a3d 61f7 21bd a589 18bf c96c 513e
00000060: bcb8 a5bd 447f 19be f491 743e e25f b23e
00000070: 762a ee3e 8f1b bebd ad3d 0f3e 6b98 20bf
00000080: fbc9 06bf 38fb d73e f82e 263f 937e 80bf
00000090: 52b9 5fbe 6641 34bd ba1e 883f c383 58be
000000a0: 8a18 1dbd 47ad fe3e 234a 03bf 4470 113f
000000b0: c12c cdbe 1952 0dbf a392 a5bb 778b 6b3f
000000c0: 407d 21be 8447 2cbd 5daa 983e f831 f3be
000000d0: 9058 b3be fc0a eebe 1e2a 0dbe 6010 c33e
000000e0: 805b 493d f68c 60be 206d 823d dc65 cf3d
000000f0: 0cfd b4be eb24 a63e c486 89be ffef 3bbe
00000100: b0ee 093d f752 163f 212f 913e d133 1ebe
00000110: 289c d6be 57ff 8ebe 0578 85bd f1cb bb3d
00000120: 9382 413e be4f 98be f406 cd3e 74f5 a43e
00000130: 42eb fc3d e424 eabd 22ea 363e 944b 343f
00000140: cac9 f03e e0b4 20bf a054 18bf f480 2b3e
00000150: 1d83 b23e 3783 97bd b296 7fbf 9552 45be
00000160: 0831 f33e 78e2 5c3e e715 0f3f f348 6f3e
00000170: 592e 123f cf87 3a3f 1f13 32be c095 4fbf
00000180: f5c1 f43e 1e64 82be be0d f9be eb6d 403f
00000190: 893c 533f f54c 163f 8404 44bf 008b 1cbe
000001a0: a8ff d43e 3b39 c2be 32fb 413f 36a3 e73e
000001b0: dd9f d03e e04a 533e 8528 1d3f c0df 17bf
000001c0: b211 fbbe b15e c03d 6ebd c43e 53b8 94be
000001d0: 4741 0cbf 54e0 8ebe f5d5 ee3e bddf aebe
000001e0: f5f2 ed3e 4a3b f33e 2132 6a3e b416 02bd
000001f0: 37d0 4e3e 1761 85be 1955 00bf 158c 733f

arith.constant2 f4 [4]
0.14550863 -0.09706142 0.16227995 -0.29069412
00000000: 3700 153e 23c8 c6bd b72c 263e dcd5 94be

sequential_1/dense_1_2/BiasAdd/ReadVariableOp f4 [8]
-0.0178336 0.11756214 -0.083238184 -0.054489326 0.057149857 0.345769 0.27123228 -0.02843417
00000000: c517 92bc 6bc4 f03d c878 aabd 3330 5fbd
00000010: f815 6a3d a208 b13e f5de 8a3e c7ee e8bc

sequential_1/dense_1/BiasAdd/ReadVariableOp f4 [16]
0.53541905 -0.17555873 -0.26654086 0.3334301 0.46296033 0.19795041 -0.18768534 -0.020967409
0.27267674 0.0531712 0.41127372 0.32981652 0.46009582 0.25346097 0.17931186 -0.08299944
00000000: 3911 093f abc5 33be 0b78 88be 5ab7 aa3e
00000010: 2309 ed3e 83b3 4a3e 9630 40be d8c3 abbc
00000020: 499c 8b3e 0bca 593d 7892 d23e b6dd a83e
00000030: ae91 eb3e a3c5 813e 879d 373e 9cfb a9bd

sequential_1/dense_1/MatMul f4 [16, 1]
-0.5531987 0.9229766 0.6635617 -0.35467306 -0.4645753 -0.49310616 0.40164596 -0.027784228
0.31707543 0.97763836 -0.4101703 0.4932679 -0.37243754 -0.13216056 -0.54290956 0.481941
00000000: 6e9e 0dbf 3248 6c3f 2edf 293f b597 b5be
00000010: d0dc edbe 6978 fcbe 8aa4 cd3e c09b e3bc
00000020: b657 a23e 8246 7a3f d701 d2be 9c8d fc3e
00000030: 22b0 bebe 1955 07be 1ffc 0abf f9c0 f63e
