resistivity_model.tflite (tflite, 2920 bytes, 6 tensors)

arith.constant f4 [4, 8]
-0.3157849 -0.52207834 -1.0189744 0.4258529 -0.42523992 0.34992772 1.5129787 -0.9812707
0.085917786 -0.5398882 -1.2351928 0.15351899 -0.25523698 -0.34721094 0.22912897 0.25498736
-0.31230372 0.5226761 -0.11942399 0.51348877 -0.21803701 0.09125161 -0.9559259 0.8181461
-0.47352603 -0.6218469 0.9190406 -1.3154902 0.44322622 0.4127795 -0.09958194 -1.5061036
00000000: 8fae a1be eda6 05bf c16d 82bf 6409 da3e
00000010: 0cb9 d9be ba29 b33e 49a9 c13f 8e34 7bbf
00000020: aaf5 af3d 1d36 0abf cc1a 9ebf 1534 1d3e
00000030: 6cae 82be a2c5 b1be c9a0 6a3e b48d 823e
00000040: 46e6 9fbe 1ace 053f 9194 f4bd 0074 033f
00000050: 1845 5fbe 20e2 ba3d 8fb7 74bf 0672 513f
00000060: 0172 f2be 5c31 1fbf 3f46 6b3f fc61 a8bf
00000070: 8cee e23e d657 d33e 9ef1 cbbd 01c8 c0bf

arith.constant1 f4 [8, 16]
-0.5440928 -0.14877221 -0.069835305 -0.0037035602 -0.5008735 0.21427476 -0.2236731 -0.38850158
0.17091608 0.14951552 -0.078219056 -0.45729154 -0.17301545 -0.05016642 0.3949487 0.27050006
-0.23929131 0.33209226 -0.23219359 0.02363147 0.35526633 -0.40890217 -0.83288103 -0.6689166
0.08800902 0.1324945 -0.5241663 -0.13830166 -0.06663302 0.34763843 0.47102702 0.095207825
0.80151355 0.7684629 -0.4085616 0.21905309 0.09556636 0.42746747 0.32203302 -0.6310721
-0.3448569 -0.10429416 0.10252779 -0.03334843 0.73545206 0.34352565 0.24200754 0.74014693
-0.50599957 -0.43690893 -0.42329443 0.6912847 0.92187697 -0.018774003 0.21685076 0.5952558
-0.080775484 0.6777812 -0.17007159 0.6833221 0.6415803 0.03236593 0.85004336 -0.50166005
-0.0276907 0.18294412 -0.42683804 -0.4584133 -0.095185876 -0.29867792 0.1481868 -0.1116184
-0.33511436 -0.18268824 0.22900772 -0.13882029 0.07045337 0.20186676 -0.016259957 -0.28156263
0.22067845 -0.1955316 -0.3660555 -0.008503079 -0.48912132 0.16868246 0.22547317 0.28362572
0.09136498 -0.39984155 -0.26303518 -0.38932717 -0.015295863 0.28620946 -0.25124216 -0.3755263
0.06761057 -0.73999417 0.32709965 0.038399838 -0.1333302 0.2008902 -1.0730457 -0.146487
0.28358832 0.32694367 -0.42113358 -0.4772535 0.51705784 0.8076213 0.6548686 -0.5065765
-0.88789916 -0.163709 0.14703119 0.4907453 -0.05089087 -0.4358343 -0.450704 -0.34776258
0.1339091 -0.2696371 -0.99420524 -0.08105291 0.05043587 0.44804865 0.38478222 -0.7842139
00000000: aa49 0bbf be57 18be d005 8fbd 6eb7 72bb
00000010: 3f39 00bf d86a 5b3e 900a 65be aee9 c6be
00000020: a004 2f3e 991a 193e 5031 a0bd 1e22 eabe
00000030: f62a 31be 4e7b 4dbd b736 ca3e fc7e 8a3e
00000040: c808 75be ff07 aa3e 28c4 6dbe c996 c13c
00000050: 78e5 b53e a05b d1be b137 55bf 1e3e 2bbf
00000060: 133e b43d a3ac 073e c32f 06bf f39e 0dbe
00000070: e576 88bd aafd b13e 742a f13e 52fc c23d
00000080: fe2f 4d3f fcb9 443f fc2e d1be 744f 603e
00000090: 4cb8 c33d 04dd da3e 83e1 a43e f18d 21bf
000000a0: 1591 b0be 2d98 d5bd 17fa d13d 5d98 08bd
000000b0: 9646 3c3f 98e2 af3e d3d0 773e 457a 3d3f
000000c0: 3089 01bf 87b2 dfbe 0cba d8be 09f8 303f
000000d0: 2100 6c3f f0cb 99bc 200e 5e3e af62 183f
000000e0: 9e6d a5bd 1283 2d3f 3f27 2ebe 32ee 2e3f
000000f0: 9b3e 243f 2392 043d 719c 593f cb6c 00bf
00000100: 9bd7 e2bc b455 3b3e 848a dabe 26b5 eabe
00000110: d0f0 c2bd 50ec 98be 48be 173e 3098 e4bd
00000120: 1c94 abbe a012 3bbe 0081 6a3e e826 0ebe
00000130: db49 903d 29b6 4e3e 9a33 85bc fa28 90be
00000140: 88f9 613e 7039 48be a06b bbbe 8050 0bbc
00000150: 1c6e fabe 18bb 2c3e 70e2 663e 6437 913e
00000160: 901d bb3d 08b8 ccbe 8cac 86be e455 c7be
00000170: 809b 7abc 0c8a 923e d0a2 80be fc44 c0be
00000180: 6977 8a3d 4270 3dbf 9b79 a73e 2649 1d3d
00000190: b687 08be 29b6 4d3e 9059 89bf b000 16be
000001a0: 7d32 913e 2965 a73e d29e d7be 925a f4be
000001b0: e75d 043f 45c0 4e3f 78a5 273f ffae 01bf
000001c0: 5c4d 63bf 55a3 27be 588f 163e f842 fb3e
000001d0: f272 50bd ac25 dfbe adc2 e6be f00d b2be
000001e0: 781f 093e e00d 8abe 3c84 7ebf 11ff a5bd
000001f0: d895 4e3d a266 e53e 2d02 c53e 3ec2 48bf

arith.constant2 f4 [4]
0.071438864 0.44762972 0.34751222 -0.70153075
00000000: 8a4e 923d b92f e53e 1fed b13e 8597 33bf

arith.constant3 f4 [8]
-0.11681313 0.060028788 -0.20934686 0.5025703 -0.05371907 0.0 0.26059225 0.00876911
00000000: b93b efbd bfe0 753d 065f 56be 72a8 003f
00000010: 8708 5cbd 0000 0000 596c 853e 50ac 0f3c

sequential_1_1/dense_3_1/BiasAdd/ReadVariableOp f4 [16]
-0.35405827 -0.20791726 -0.118696645 0.55168045 0.53505087 -0.050202716 -0.14966963 0.34790418
-0.13226761 0.6115519 -0.22003242 0.16806944 0.54921526 0.4121959 0.6227202 -0.35821503
00000000: 2047 b5be 43e8 54be 3a17 f3bd ee3a 0d3f
00000010: 18f9 083f 5da1 4dbd ff42 19be 7f20 b23e
00000020: 2971 07be aa8e 1c3f 2e50 61be 651a 2c3e
00000030: 5f99 0c3f 570b d33e 976a 1f3f f667 b7be

sequential_1_1/dense_3_1/MatMul f4 [16, 1]
-0.6112473 -0.70654124 0.21618523 -0.21718536 0.41602463 0.08755456 1.0127519 1.0805442
0.24170536 -0.3256298 -0.3730205 0.673035 -0.5318167 -0.73690873 -0.3920478 -0.68922645
00000000: b47a 1cbf e3df 34bf a95f 5d3e d765 5ebe
00000010: 2e01 d53e ce4f b33d dba1 813f 464f 8a3f
00000020: 9c81 773e f3b8 a6be 8bfc bebe 064c 2c3f
00000030: 2425 08bf 0da6 3cbf 7dba c8be 2571 30bf
